backend/core/pothole_classifier.pth (torch, 154649 bytes, 5 tensors)

conv1.weight f4 [16, 3, 3, 3]
0	0xbd725fe8	-0.059173495
1	0xbc9412a4	-0.018075295
2	0xbbb4a3b0	-0.005512677
3	0x3d46531b	0.0484191
4	0xbe08511c	-0.13312191
5	0xbc50ccf7	-0.01274418
6	0xbd8cc612	-0.068737164
7	0x3e452751	0.1925328
8	0x3d650082	0.055908687
9	0x3dc80a0f	0.097675435
10	0x3dca5f65	0.09881476
11	0xbd1252ca	-0.035723485
12	0xbd99f316	-0.07517068
13	0xbe09554b	-0.13411443
14	0xbd16cc46	-0.036815904
15	0xbe39e712	-0.18154553
16	0x3e4180dd	0.18896814
17	0x3db21a6d	0.086964466
18	0x3d9960fd	0.07489202
19	0x3e2ae7c6	0.16689977
20	0x3d04da03	0.032434475
21	0x3dbc0a05	0.091815986
22	0x3d95a3cc	0.073066324
23	0x3e4abb12	0.19797924
24	0x3e1676f8	0.1469382
25	0xbdd7ef3d	-0.10543678
26	0xbe17a09a	-0.14807358
27	0xbc7197a2	-0.014745625
28	0x3e5023be	0.20326135
29	0x3e0ef7e0	0.13961744
30	0xbd81f52c	-0.06345591
31	0x3dc778e2	0.097398534
32	0x3be0834f	0.0068515907
33	0xbe1a20cb	-0.15051572
34	0xbe02caf9	-0.1277274
35	0x3de2d7bf	0.110763066
36	0x3e4c05cc	0.19924086
37	0xbdbaf8b7	-0.0912947
38	0xbde9550d	-0.11393175
39	0xbd387b4b	-0.045039456
40	0xbe376b5f	-0.17912053
41	0x3d9e00f1	0.07715023
42	0x3d82b4dc	0.063821524
43	0x3da09786	0.07841401
44	0xbe1e461d	-0.15456434
45	0xbcd750be	-0.026283618
46	0xbd2f0925	-0.04273333
47	0xbe022970	-0.1271112
48	0x3d9a06fc	0.075208634
49	0xbd3c2b49	-0.045939717
50	0xbe1db3c2	-0.15400603
51	0xbe259863	-0.16171412
52	0xbdad4a08	-0.08461386
53	0x3e2c4f6b	0.1682717
54	0x3e4905b5	0.19631083
55	0xbdb378cd	-0.08763275
56	0x3e2caa72	0.16861895
57	0xbcfe9f59	-0.031081842
58	0x3c97bcd9	0.018522667
59	0xbc755dcf	-0.014975979
60	0x3d92938c	0.071570486
61	0x3d737ad5	0.059443314
62	0x3d947271	0.072483905
63	0xbcfb2136	-0.030655485
64	0xbda767fd	-0.08174131
65	0x3dcaf8b6	0.09910719
66	0xbb7e8e8f	-0.0038842296
67	0xbda0dcd5	-0.0785462
68	0xbc894bbc	-0.016759746
69	0x3de3bbda	0.11119814
70	0x3c882cfd	0.016623015
71	0x3db45fcb	0.088073336
72	0x3e1dd502	0.15413287
73	0x3e19b3b9	0.15009965
74	0xbd25bd78	-0.040463895
75	0xbe469bad	-0.19395323
76	0x3c288e41	0.010287822
77	0xbd4b289a	-0.049599268
78	0xbe2f6c0a	-0.17131057
79	0xbc2900da	-0.010315144
80	0x3c8cc425	0.017183373
81	0xbdbc7eee	-0.092038974
82	0xbd5bb3f7	-0.053638425
83	0x3daa8beb	0.083274685
84	0x3e1cb3ca	0.15302959
85	0x3d4d3238	0.05009672
86	0xbdf8b5c7	-0.12144046
87	0xbd68e7d3	-0.05686171
88	0x3ddc2670	0.10749519
89	0xbe2a81b7	-0.16651045
90	0x3e1c3a93	0.1525672
91	0xbd1d70b5	-0.038437564
92	0xbddeaec5	-0.108731784
93	0xbde7cb51	-0.113180764
94	0xbe451aff	-0.1924858
95	0xbdfb2c71	-0.12264336
96	0x3d3e8265	0.046511073
97	0xbe170284	-0.14747053
98	0x3e0b6e3e	0.13616273
99	0x3cf189af	0.029484598
100	0xbd9b952f	-0.07596814
101	0x3e08efad	0.13372679
102	0x3dc5794e	0.09642278
103	0x3d12d761	0.035849933
104	0xbe06216f	-0.13098691
105	0xbc387767	-0.0112589365
106	0xbe15465b	-0.1457762
107	0xbe217f06	-0.15771112
108	0xbd451747	-0.048117902
109	0xbd309723	-0.043112885
110	0xbd49cc07	-0.04926684
111	0xbe3cfaea	-0.18455091
112	0x3dc78ca3	0.09743621
113	0xbe34f627	-0.17672025
114	0xbdcecbec	-0.10097489
115	0x3d8aee50	0.06783736
116	0x3e38c091	0.18042208
117	0xbcdd954a	-0.027048726
118	0xbe278a96	-0.1636146
119	0x3e3c5f3b	0.18395703
120	0xbe0104d1	-0.12599494
121	0xbd9f1d96	-0.07769315
122	0xbe4039dc	-0.18772072
123	0x3d807c06	0.062736556
124	0xbdb19208	-0.086704314
125	0xbb1a9d7b	-0.00235924
126	0x3e40bda2	0.18822339
127	0xbc70e7e2	-0.014703723
128	0xbe25390a	-0.1613504
129	0x3cbeda24	0.023297377
130	0x3cac28ef	0.021015612
131	0x3d9ad312	0.0755979
132	0x3e410e05	0.18853004
133	0x3bb3dd51	0.0054890295
134	0xba8a05b7	-0.0010530268
135	0xbe2f5372	-0.17121676
136	0xbde41d9d	-0.11138461
137	0x3d09f6b8	0.033682555
138	0x3e1e1c9c	0.15440601
139	0x3d94cb96	0.072653934
140	0x3de8ea77	0.113728456
141	0xbe05ef17	-0.13079487
142	0x3e256b1d	0.16154142
143	0x3b001cbf	0.0019548384
144	0x3dcf5db7	0.101252966
145	0x3dfc82ce	0.123296365
146	0xbe20f3eb	-0.15718047
147	0x3de46a3e	0.111530766
148	0x3e40a7d4	0.18814021
149	0x3cebfd35	0.028807262
150	0xbdf59820	-0.11991906
151	0xbe3dd794	-0.18539268
152	0xbdb8f91c	-0.09031889
153	0xbe50b7cd	-0.20382614
154	0xbc23d9d3	-0.010000664
155	0xbe061e2c	-0.13097447
156	0xbdba19fd	-0.09086988
157	0xbe54afac	-0.20770139
158	0xbddd522d	-0.108066894
159	0x3d8d2265	0.06891326
160	0x3dde8956	0.108660385
161	0xbe4d53ce	-0.200515
162	0x3e0b31c4	0.13593203
163	0xbe1bfab6	-0.15232357
164	0x3e0273f8	0.12739551
165	0xbe25f5d2	-0.16207054
166	0x3da37790	0.07981789
167	0x3d4c53ab	0.04988448
168	0x3d4b2924	0.04959978
169	0xbdb0a37e	-0.08624934
170	0x3e0573fc	0.13032526
171	0xbdca381a	-0.09873982
172	0x3cfec9aa	0.03110202
173	0x3d9cf81c	0.076645106
174	0xbd9abdd5	-0.07555739
175	0xbdd805d0	-0.10547984
176	0xbe26b610	-0.16280389
177	0xbe354ed8	-0.17705858
178	0xbda45ceb	-0.08025535
179	0xbe323be4	-0.17405659
180	0x3e5094eb	0.20369308
181	0x3dab8241	0.08374453
182	0x3e2f4db4	0.17119485
183	0xbe0615ac	-0.13094205
184	0x3d2df07d	0.042465676
185	0xbdfaed5f	-0.12252306
186	0x3e4e3323	0.20136695
187	0x3d42845a	0.0474895
188	0xbdd28999	-0.10280151
189	0x3e32b0a7	0.174502
190	0xbca1a601	-0.019732477
191	0xbd81a3cb	-0.06330069
192	0x3e2da7a3	0.1695848
193	0x399ea786	0.00030260923
194	0x3d5ead70	0.05436462
195	0xbd3738e7	-0.044732
196	0xbd14875d	-0.036261905
197	0xbe36dd1b	-0.17857783
198	0x3dc54a7c	0.096333474
199	0x3d4ab2f0	0.049487054
200	0xbd69a790	-0.057044566
201	0x3e3170ca	0.17328182
202	0xbda094fc	-0.078409165
203	0xbd453aff	-0.048151966
204	0x3e2f610b	0.17126863
205	0xbc689f5f	-0.014198153
206	0xbb8571ae	-0.0040723896
207	0xbd8291de	-0.06375478
208	0x3e121b9d	0.14268346
209	0x3dd3f13a	0.10348745
210	0x3e30de8f	0.172724
211	0x3e01fa2a	0.12693086
212	0x3ca3eedb	0.020011356
213	0xbd85351b	-0.0650427
214	0x3e10a4b8	0.14125335
215	0x3e3d8189	0.18506445
216	0xbdefc451	-0.11707366
217	0xbd803182	-0.06259443
218	0x3dedd51d	0.11612914
219	0x3e2a578f	0.16634963
220	0x3e1eb9a6	0.15500507
221	0xbce172c3	-0.027520543
222	0x3e0e4aae	0.13895676
223	0xbd937a34	-0.07201043
224	0x3e04ccdf	0.12968777
225	0xbce6c8a8	-0.028171852
226	0x3d1d3bec	0.038387224
227	0x3e46db50	0.19419599
228	0xbe3ecc5a	-0.18632641
229	0x3ca3904b	0.019966265
230	0xbe22db65	-0.15904005
231	0x3dc79f4a	0.09747179
232	0xbd4ae109	-0.049531016
233	0xbe110eac	-0.14165753
234	0xbd976d85	-0.07393936
235	0x3bb51c1f	0.005527034
236	0x3e4050f5	0.18780883
237	0x3ce1adc3	0.027548676
238	0xbc9a6220	-0.018845618
239	0xbe21272e	-0.15737602
240	0x3e2e4621	0.1701894
241	0x3cdffd90	0.027342588
242	0xbe485b1f	-0.1956601
243	0xbd81824c	-0.0632368
244	0xbd61aad3	-0.05509455
245	0x3e1bfd1c	0.15233272
246	0x3ddc7157	0.10763805
247	0x3e1d62c8	0.15369713
248	0x3d225600	0.039632797
249	0x3e34dbf6	0.17662033
250	0xbe029b01	-0.12754442
251	0xbde2a43e	-0.11066483
252	0xbdbbd531	-0.091715224
253	0xbde62349	-0.11237199
254	0x3dcdd79b	0.10050889
255	0x3e11ba09	0.14231123

conv1.bias f4 [16]
0	0xbe2ff39e	-0.17182776
1	0x3d75e287	0.060030486
2	0x3c740f12	0.014896171
3	0x3db18566	0.08668022
4	0x3df45de0	0.11931968
5	0x3dc683f3	0.09693136
6	0x3e0981c3	0.13428406
7	0x3d791a18	0.0608159
8	0x3e10deda	0.14147511
9	0xbe2003bd	-0.15626426
10	0x3d834a7f	0.064106934
11	0xbc6b2322	-0.014351638
12	0x3db7f292	0.089818135
13	0x3db7e277	0.089787416
14	0xbd8853ac	-0.06656584
15	0x3dec28d2	0.11531223

conv2.weight f4 [32, 16, 3, 3]
0	0xbd66ab94	-0.056315973
1	0xbc00fc5a	-0.007872665
2	0xbcfa3f71	-0.03054783
3	0x3d15ca49	0.036569867
4	0xbda80fcd	-0.08206139
5	0xbd8006e8	-0.06251317
6	0x3d6641df	0.056215163
7	0x3d746950	0.059670746
8	0xbda3b328	-0.07993156
9	0xbd8650ad	-0.065583564
10	0x3d15242f	0.03641146
11	0x3bf489e0	0.007462725
12	0x3d4165e8	0.047216326
13	0x3cdafa65	0.026730726
14	0x3d17fe1b	0.03710757
15	0xbd534b4b	-0.051585477
16	0xbda196fa	-0.078901246
17	0xbd23f54d	-0.04002886
18	0x3d0e9126	0.034806393
19	0xbd523951	-0.051324192
20	0x3d2c390d	0.042046595
21	0x3daa3777	0.0831136
22	0xba38db10	-0.0007051686
23	0xbc4eaacb	-0.012613962
24	0xbd1d0c5c	-0.038341865
25	0x3d62f54f	0.055409726
26	0xbd83acc7	-0.06429439
27	0xbd19a3ab	-0.0375096
28	0xbad98f02	-0.0016598406
29	0xbc98b025	-0.01863868
30	0x3d53541b	0.05159388
31	0x3da41781	0.080122955
32	0xbd2aec8c	-0.041729495
33	0xbd9316c1	-0.07182074
34	0x3b3bee69	0.002867604
35	0x3d8327f2	0.06404103
36	0xbd254515	-0.040349085
37	0x3a240456	0.00062567496
38	0xbd0e771a	-0.034781553
39	0x3d94a8b4	0.0725874
40	0xbc6a5ec3	-0.0143048195
41	0xbd2c692c	-0.042092487
42	0x3d6a2ecd	0.05717354
43	0x3c30201a	0.010749841
44	0x3b1a497d	0.0023542338
45	0xbd5fc7c6	-0.05463388
46	0xbc4da93a	-0.012552554
47	0xbbac455d	-0.005257292
48	0x3d35bda1	0.044370297
49	0xbd27a22b	-0.04092614
50	0xbd510104	-0.05102636
51	0x3d73d43f	0.059528586
52	0x3c416dd7	0.011805973
53	0xbd597006	-0.05308535
54	0x3d25888b	0.04041342
55	0xbcbc895d	-0.023014719
56	0x3d8790da	0.06619425
57	0x3ca66192	0.020310197
58	0x3ce2a98c	0.027668737
59	0x3d342a88	0.043985873
60	0xbcd6f684	-0.026240595
61	0x3b505d16	0.0031793765
62	0x3c813a8b	0.015774986
63	0xbd8844c4	-0.06653741
64	0x3d9edf72	0.077574626
65	0xbd3752f2	-0.044756837
66	0xbd793b87	-0.060847785
67	0xbd8c3644	-0.06846288
68	0x3b915d35	0.00443616
69	0x3db138a0	0.086533785
70	0x3c8074d9	0.015680717
71	0xbd826b80	-0.0636816
72	0x3d738b99	0.059459303
73	0x3d4f1768	0.05055943
74	0x3d8a5df5	0.06756202
75	0x3da021c0	0.07818937
76	0x3d9203ae	0.07129608
77	0x3c22e53f	0.009942352
78	0x3d0ba6b9	0.034094546
79	0xbc033047	-0.008007116
80	0x3d02b695	0.031912405
81	0xbd8f1611	-0.06986631
82	0x3d742d93	0.059613775
83	0xbd3c85d5	-0.04602607
84	0xbd15c767	-0.036567118
85	0x3cc40f74	0.02393315
86	0xbd7f4b6e	-0.062327795
87	0xbcad7199	-0.021172332
88	0xbd83f414	-0.064430386
89	0x3da6b87a	0.08140655
90	0x3c03ac2b	0.0080366535
91	0xbd64e7d4	-0.05588515
92	0x3d19a8f0	0.037514627
93	0xbcc56f29	-0.024100857
94	0x3cf53b86	0.02993561
95	0x3d51f399	0.051257703
96	0xbc9baef5	-0.019004324
97	0xbd695dbc	-0.056974158
98	0xbd56d553	-0.052449536
99	0x3ca0cd22	0.019629065
100	0x3da10aa3	0.07863357
101	0x3cfc8b16	0.03082804
102	0xbad94b7c	-0.0016578282
103	0xbd8a9337	-0.0676636
104	0xbd517185	-0.05113365
105	0x3d8ef9de	0.06981252
106	0xbd698778	-0.05701396
107	0x3d1978b0	0.037468612
108	0xbd17954d	-0.03700762
109	0xbd5d8fb6	-0.05409213
110	0x3d17826e	0.03698962
111	0xbd0ef916	-0.034905516
112	0xbcc93401	-0.02456093
113	0x3c8bbcbb	0.017057767
114	0xbab94650	-0.0014135335
115	0xbd0572c2	-0.032580145
116	0x3d6595ac	0.05605094
117	0x3d23d0b8	0.03999397
118	0xbd29f52a	-0.041493572
119	0xbd2fb043	-0.042892706
120	0xbcebdcea	-0.028791863
121	0x3da1b75d	0.07896302
122	0x3cdfb311	0.027307065
123	0xbd84d1b9	-0.06485314
124	0x3d8370ae	0.06417976
125	0xbd6766f8	-0.056494683
126	0xbd010132	-0.03149528
127	0x3d105acc	0.03524284
128	0x3d88185f	0.066452734
129	0xbcef3f88	-0.029205099
130	0xbcd651fa	-0.026162136
131	0xbd8b2126	-0.06793432
132	0xbcdd39e5	-0.027005145
133	0xbd1e4cf3	-0.038647603
134	0xbccfb7b0	-0.025356144
135	0xbd382345	-0.04495551
136	0xbd81f13a	-0.063448384
137	0x3cf64bf5	0.030065516
138	0xbcafea56	-0.021474045
139	0xbd337a0a	-0.043817557
140	0x3d8ace6c	0.06777653
141	0xbd2a8d16	-0.041638456
142	0x3c08051e	0.008302001
143	0x3cce871d	0.025210911
144	0x3d84d6ad	0.06486259
145	0x3caa31d5	0.020775715
146	0xbcdbf26f	-0.026849
147	0xbd0bdae6	-0.034144305
148	0xbd7da6c6	-0.061926626
149	0xbd3182bd	-0.043337572
150	0x3da6f49c	0.08152124
151	0xbd462643	-0.048376333
152	0xbd50a4c8	-0.050938398
153	0x3c7b49bc	0.015337404
154	0x3d6891ff	0.056779858
155	0x3d15a528	0.03653446
156	0x3d7923c4	0.060825124
157	0xbd9ea7fd	-0.07746885
158	0x3d88bf59	0.06677122
159	0x3d2b228b	0.04178099
160	0xbcc8f2fd	-0.024529928
161	0x3d0942e5	0.03351106
162	0xbd7451dd	-0.059648383
163	0xbc942bff	-0.018087385
164	0xbd2b9a4d	-0.0418952
165	0x3da14e90	0.07876313
166	0xbc70f96c	-0.014707904
167	0x3d2aa172	0.041657872
168	0x3cee61e8	0.02909942
169	0x3d000c67	0.031261828
170	0x3cb7243e	0.022356149
171	0xbd1382cb	-0.036013406
172	0x3cc5a18a	0.02412488
173	0x3ce5eeda	0.028067995
174	0x3b0d16de	0.0021528522
175	0xbd758e87	-0.059950378
176	0xbd3f9ce4	-0.046780482
177	0xbdab4233	-0.08362236
178	0xbcd21cd3	-0.02564851
179	0xbce2f364	-0.027703948
180	0xbd0b2f60	-0.033980727
181	0xbd4ee7dc	-0.050514087
182	0xbc3901e8	-0.011291958
183	0x3d1c7a42	0.03820253
184	0x3cf70700	0.030154705
185	0xbd564589	-0.052312408
186	0x3d7fe3fa	0.062473275
187	0x3caf8c4b	0.021429202
188	0x3cd9053d	0.026491756
189	0xbc979ace	-0.018506434
190	0xbc919d87	-0.01777531
191	0x3d8cda0e	0.06877528
192	0x3d993208	0.07480246
193	0x3d221f8a	0.03958086
194	0xbb0763ba	-0.0020658807
195	0x3da06ded	0.07833467
196	0xbd6015d3	-0.054708313
197	0xbd4e9dfb	-0.05044363
198	0xbcaf64a4	-0.021410294
199	0xbd18d6b8	-0.037314147
200	0x3c7ef430	0.0155611485
201	0x396087a0	0.00021412829
202	0x3da3b786	0.07993989
203	0x3d89d6e0	0.06730437
204	0xbd37ff91	-0.04492146
205	0x3db6a112	0.089174405
206	0xbd2ade1d	-0.04171573
207	0xbd84619a	-0.064639285
208	0xbce18d3d	-0.027533168
209	0x3db9b251	0.09067214
210	0xbd969f05	-0.07354549
211	0x3b517d43	0.003196553
212	0x3d20d248	0.03926304
213	0xbda67547	-0.08127838
214	0xbc15af33	-0.009136009
215	0xbc9b82ff	-0.018983362
216	0xbda272e4	-0.0793207
217	0x3d8149b1	0.06312884
218	0x3d8d77af	0.069075935
219	0xbd8cb79a	-0.06870957
220	0xbbc65e08	-0.00605369
221	0xbd9d248c	-0.076729864
222	0x3d2870ea	0.04112331
223	0x3cf79ac4	0.030225165
224	0xbc3a7210	-0.011379734
225	0x3d4aed0d	0.049542475
226	0xbba3b73f	-0.00499621
227	0x3de6fbe3	0.11278512
228	0x3deb3ec5	0.11486582
229	0x3dcceaf2	0.1000575
230	0xbcee1f68	-0.02906771
231	0xbc3ff25d	-0.011715499
232	0x3d4ec7cd	0.050483514
233	0xbd7b90d1	-0.061417405
234	0x3c336cfa	0.010951275
235	0xbccaa415	-0.024736444
236	0xbc01d0a8	-0.007923283
237	0x3d742ed5	0.059614975
238	0x3bf2ff88	0.0074157156
239	0xbd9f262a	-0.07770951
240	0x3d902700	0.07038689
241	0x3cbbe53d	0.022936458
242	0xbcd6fcad	-0.026243532
243	0x3d64a61c	0.055822477
244	0xba34c1c6	-0.00068953296
245	0x3d71fd53	0.05907948
246	0x3ca561b7	0.020188196
247	0xbd01244e	-0.031528763
248	0x393a346e	0.00017757874
249	0x3ddcb0e4	0.10775927
250	0xbd8beee6	-0.06832676
251	0xbd7d8625	-0.06189551
252	0x3d5d3879	0.054008935
253	0xbd032053	-0.03201325
254	0xbd501bdb	-0.050807815
255	0x3d91b6fa	0.07114978

conv2.bias f4 [32]
0	0x3d7fbc8c	0.06243567
1	0xbbfaf2b1	-0.0076583256
2	0x3d77a2d4	0.06045802
3	0xbdb882f4	-0.09009352
4	0x3c9454c4	0.018106826
5	0x3cf63ff9	0.030059801
6	0x3c5e7530	0.013577744
7	0x3d681bdf	0.056667205
8	0xbdbfa49a	-0.09357567
9	0x3d68050d	0.05664544
10	0xbd807ec2	-0.06274177
11	0xbd890d2e	-0.06691967
12	0x3da5245f	0.08063578
13	0x3ca20455	0.019777456
14	0xbd802c59	-0.06258459
15	0x3c5dc4ab	0.013535659
16	0xbb0eb40e	-0.0021774801
17	0xbc3b8c12	-0.01144697
18	0x3c6523d2	0.013985591
19	0xbd60f976	-0.054925404
20	0xbd076347	-0.033053663
21	0xbd9b2281	-0.075749405
22	0x3bffdee3	0.0078085526
23	0x3d41d47b	0.047321778
24	0x3d47344f	0.04863387
25	0xbb8647a3	-0.004097895
26	0x3cf451b5	0.029824117
27	0xbdafeebd	-0.085904576
28	0xbc8c7114	-0.017143764
29	0x3cd500a0	0.026001275
30	0x3d2863ce	0.041110806
31	0x3c6e74ed	0.0145542445

fc1.weight f4 [1, 32768]
0	0xbaebff22	-0.0018005113
1	0xbb3c7511	-0.00287563
2	0x3b0a98de	0.0021148245
3	0x3c27b009	0.010234841
4	0x3c4441e9	0.011978605
5	0x3bb6a0f2	0.0055733854
6	0x3b6b293f	0.003588274
7	0xbbe3049e	-0.0069280406
8	0xbbec9db8	-0.00722095
9	0xb9a015af	-0.00030533734
10	0x3c07692d	0.008264822
11	0x3c1683da	0.009186709
12	0x3c09212d	0.008369726
13	0x3c204533	0.009782123
14	0x3bf58d14	0.0074936245
15	0x3c149cb8	0.009070568
16	0x3cb9c9f8	0.022679314
17	0x3cc666be	0.024218913
18	0x3c16fc92	0.009215491
19	0x3bcefa8b	0.006316488
20	0x3c26eb49	0.010187932
21	0x3abd1763	0.0014426525
22	0x3c88ac2a	0.016683657
23	0x3c91fe95	0.01782159
24	0x3c17f2ea	0.009274224
25	0x3c09339a	0.008374119
26	0x3c5050b8	0.012714557
27	0x3c952e75	0.018210629
28	0x3ca7c656	0.020480316
29	0x3c9dca59	0.019261526
30	0x3c457821	0.012052567
31	0x3c0b876e	0.008516176
32	0xb9bc7427	-0.00035944695
33	0x3c93f56d	0.018061364
34	0x3b47a970	0.0030465983
35	0x3c4fd546	0.012685126
36	0x3cce8957	0.025211973
37	0x3d02088e	0.03174644
38	0x3cd79225	0.026314804
39	0x3cf3ee07	0.029776586
40	0x3cd6d11e	0.026222762
41	0x3cb1f4b3	0.021723127
42	0x3ce96812	0.028492007
43	0x3cd4b44b	0.025964877
44	0x3cf0570d	0.029338384
45	0x3c9adb3f	0.018903373
46	0x3c56e1f1	0.013115392
47	0x3ce0a6d5	0.027423302
48	0x3cdeaa40	0.02718079
49	0x3d0058ee	0.03133481
50	0x3c5c4e30	0.013446376
51	0x3cd2e306	0.025743019
52	0x3ca39196	0.019966882
53	0x3c84968e	0.016185071
54	0x3ca9bbac	0.020719372
55	0x3c95aba7	0.018270327
56	0x3d0754c1	0.033039812
57	0x3cda9220	0.026681006
58	0x3cdc8288	0.02691771
59	0x3cb6c543	0.022310859
60	0x3ca0b891	0.019619258
61	0x3c98ba49	0.018643515
62	0x3cb2ac65	0.02181072
63	0xbbc84b90	-0.0061125234
64	0x3c006780	0.007837176
65	0x3c84e463	0.016222185
66	0x3b83bad0	0.0040200725
67	0x3d01c292	0.031679697
68	0x3cef5bf8	0.029218659
69	0x3cb36ab4	0.021901466
70	0x3cbd0329	0.023072796
71	0x3c69119a	0.014225388
72	0x3ca78ab3	0.02045188
73	0x3d0424bb	0.03226159
74	0x3cde45df	0.027132927
75	0x3c3957cf	0.011312439
76	0x3ccf1c4f	0.025282053
77	0x3cb7f215	0.0224543
78	0x3cdf07db	0.027225425
79	0x3d1bdf62	0.03805483
80	0x3ca4f727	0.020137383
81	0x3cb9ac23	0.022665089
82	0x3c73111f	0.014835625
83	0x3c9f5722	0.019450728
84	0x3c719e17	0.014747164
85	0x3c4f22ad	0.012642545
86	0x3cddc74d	0.027072573
87	0x3ca0a40c	0.019609474
88	0x3cda5f0e	0.026656654
89	0x3cf4993c	0.029858224
90	0x3cc8943e	0.02448475
91	0x3c2a37e3	0.010389301
92	0x3cd20eae	0.025641765
93	0x3c92f8e5	0.017940948
94	0x3bd35db5	0.0064503797
95	0xbba9cb5a	-0.005181712
96	0x3c3ab2f6	0.011395207
97	0x3c8cf2db	0.017205646
98	0xb9c18cc3	-0.00036916704
99	0x3c8a297d	0.016865486
100	0x3cdf14aa	0.027231533
101	0x3c6079b4	0.013700891
102	0x3cdcf35d	0.026971513
103	0x3cbe04a5	0.023195574
104	0x3c6d672c	0.01448993
105	0x3c802445	0.015642295
106	0x3ceb8a0e	0.028752353
107	0x3ccfa29f	0.025346098
108	0x3cf8a352	0.030351315
109	0x3d05d745	0.032676
110	0x3c8238f0	0.01589629
111	0x3cd9857b	0.026552906
112	0x3c34b22e	0.0110288095
113	0x3c256e95	0.010097166
114	0x3c985a35	0.018597702
115	0x3c7c2843	0.0153904585
116	0x3c3fc6c4	0.011705104
117	0x3cb44450	0.02200523
118	0x3cec1260	0.028817356
119	0x3d358392	0.04431493
120	0x3d037a24	0.032098904
121	0x3ca1d545	0.019755015
122	0x3cad280d	0.021137262
123	0x3c97a261	0.018510045
124	0x3c7a7d4e	0.015288664
125	0x3c9a84b3	0.018862104
126	0x3bc884fa	0.0061193677
127	0xbc13115f	-0.00897631
128	0x3c0f240e	0.008736623
129	0x3cf58c9f	0.02997428
130	0x3c24b9fe	0.01005411
131	0x3cecd3a6	0.028909516
132	0x3cf74c68	0.0301878
133	0x3d00f229	0.031480942
134	0x3cfc5e0a	0.03080656
135	0x3cea934e	0.028634693
136	0x3cc08f46	0.023505818
137	0x3cfdee35	0.030997375
138	0x3c801049	0.015632765
139	0x3b827e63	0.0039823516
140	0x3becc1af	0.0072252373
141	0x3b9fef68	0.0048808344
142	0x3a8f1c8f	0.0010918545
143	0x3ceec0c3	0.02914465
144	0x3cb4a448	0.022050992
145	0x3c978154	0.018494286
146	0x3c908cb8	0.017645225
147	0x3c6ffd8e	0.0146478545
148	0x3baf3ed6	0.005348067
149	0x3c93b567	0.018030835
150	0x3cc7831b	0.024354508
151	0x3ce3bce0	0.027800024
152	0x3cdfc917	0.027317567
153	0x3c2e89f2	0.010653006
154	0x3cc80632	0.024417017
155	0x3cd85443	0.026407367
156	0x3cfd3a01	0.030911447
157	0x3cdd0b32	0.026982877
158	0x3cd6cf47	0.026221884
159	0x3bf2db50	0.007411398
160	0x3b764294	0.0037576305
161	0x3c5d1798	0.013494395
162	0x3c81006c	0.015747271
163	0x3d1cb524	0.038258687
164	0x3d25bf92	0.0404659
165	0x3d005ce1	0.031338576
166	0x3cf16a11	0.029469522
167	0x3cb56f92	0.022147927
168	0x3c506f82	0.012721898
169	0x3d191945	0.037377615
170	0x3ce334b9	0.027735101
171	0x3c7754fc	0.015095945
172	0x3cf09bd2	0.029371176
173	0x3ca424f4	0.020037152
174	0x3cd3bb9f	0.0258463
175	0x3c6ebe75	0.014571776
176	0x3d00afc7	0.031417634
177	0x3ca11f36	0.019668203
178	0x3c874ed3	0.016517079
179	0x3cde25c3	0.027117616
180	0x3cdeea41	0.02721131
181	0x3d0a553e	0.0337727
182	0x3d06a86e	0.03287547
183	0x3cc74797	0.024326129
184	0x3cde43c5	0.027131924
185	0x3c6a688f	0.014307155
186	0x3ccef914	0.025265254
187	0x3c5ced4a	0.0134843085
188	0x3c19f3a6	0.009396469
189	0x3ca0c52f	0.019625274
190	0x3c3c84f3	0.011506307
191	0x3bc98851	0.0061502834
192	0x3c0d77b3	0.008634496
193	0x3cc73561	0.024317445
194	0x3c4bd8e5	0.012441848
195	0x3cc8debb	0.024520269
196	0x3caaf134	0.020866968
197	0x3c7a1c67	0.015265561
198	0x3c9972de	0.01873153
199	0x3b4a14b5	0.0030835096
200	0x3c7b4870	0.015337095
201	0x3ca90d59	0.020636247
202	0x3c90b855	0.017666021
203	0x3c4a34d3	0.012341696
204	0x3c999dea	0.018752057
205	0x3cf08a49	0.029362815
206	0x3d21d2b7	0.039507594
207	0x3d030998	0.03199157
208	0x3cd14fd4	0.02555076
209	0x3cb0e5bf	0.021593926
210	0x3d042362	0.032260306
211	0x3cc93118	0.024559543
212	0x3cd5ee35	0.026114563
213	0x3c9401dd	0.018067295
214	0x3c88c315	0.016694585
215	0x3ccd6362	0.025071803
216	0x3d0fbea4	0.03509392
217	0x3cf60e50	0.030036122
218	0x3cb35227	0.02188976
219	0x3c163d56	0.009169897
220	0x3ca677da	0.020320822
221	0x3cef1f59	0.029189752
222	0x3ca41a2f	0.020032017
223	0x3c58f233	0.013241339
224	0x3c95f76e	0.01830646
225	0x3cb056c4	0.021525748
226	0x3c980de2	0.018561307
227	0x3c948b1e	0.018132742
228	0x3d0173d9	0.03160462
229	0x3b6c1655	0.0036024053
230	0xbb4708b8	-0.0030370187
231	0x3b071540	0.0020612031
232	0x3b3ec7d0	0.0029110797
233	0x3ca5093d	0.020146007
234	0x3c5b6811	0.013391511
235	0x3bd9c6de	0.0066460213
236	0x3c3bb281	0.011456133
237	0x3c3e457a	0.011613244
238	0x3cf6b3fb	0.030115118
239	0x3c4a36f3	0.0123422025
240	0x3ca9b433	0.020715808
241	0x3c64aa54	0.013956625
242	0x3cc04842	0.023471955
243	0x3c81a00b	0.015823385
244	0x3cb05fb5	0.021530012
245	0x3d00bc89	0.0314298
246	0x3d167e0e	0.03674131
247	0x3cc35fe3	0.023849433
248	0x3c746384	0.0149163045
249	0x3c78c1c5	0.015182917
250	0x3cc8e751	0.024524363
251	0x3c85ff79	0.01635717
252	0x3c78a524	0.015176091
253	0x3cd70870	0.02624914
254	0x3ccd0ac7	0.025029553
255	0x3cd16051	0.025558623
